…
block: 196, cnn-drop 0.0000, mlp-drop 0.0000
L2G: 2 heads, inp: 128, token: 192
G2G: 4 heads
use ffn
G2L: 2 heads, inp: 128, token: 192
block: 196, cnn-drop 0.0000, mlp-drop 0.0000
L2G: 2 heads, inp: 128, token: 192
G2G: 4 heads
use ffn
G2L: 2 heads, inp: 192, token: 192
block: 49, cnn-drop 0.0000, mlp-drop 0.0000
L2G: 2 heads, inp: 192, token: 192
G2G: 4 heads
use ffn
G2L: 2 heads, inp: 192, token: 192
block: 49, cnn-drop 0.0000, mlp-drop 0.0000
L2G: 2 heads, inp: 192, token: 192
G2G: 4 heads
use ffn
G2L: 2 heads, inp: 192, token: 192
L2G: 2 heads, inp: 192, token: 192
Modification(
  (tokens): Embedding(6, 192)
  (stem): Sequential(
    (0): Conv2d(3, 16, kernel_size=(3, 3), stride=(2, 2), padding=(1, 1), bias=False)
    (1): BatchNorm2d(16, eps=1e-05, momentum=0.1, affine=True, track_running_stats=True)
    (2): ReLU6(inplace=True)
  )
  (features): Sequential(
    (0): DnaBlock3(
      (conv): Sequential(
        (0): Conv2d(16, 32, kernel_size=(3, 3), stride=(1, 1), padding=(1, 1), groups=16, bias=False)
        (1): BatchNorm2d(32, eps=1e-05, momentum=0.1, affine=True, track_running_stats=True)
        (2): ReLU6(inplace=True)
        (3): Sequential()
        (4): Conv2d(32, 16, kernel_size=(1, 1), stride=(1, 1), bias=False)
        (5): BatchNorm2d(16, eps=1e-05, momentum=0.1, affine=True, track_running_stats=True)
      )
    )
    (1): DnaBlock3(
      (conv1): Sequential(
        (0): Conv2d(16, 96, kernel_size=(3, 3), stride=(2, 2), padding=(1, 1), groups=16, bias=False)
        (1): BatchNorm2d(96, eps=1e-05, momentum=0.1, affine=True, track_running_stats=True)
        (2): Sequential()
      )
      (act1): DyReLU(
        (act): Sequential()
      )
      (hyper1): HyperFunc(
        (hyper): Sequential(
          (0): Linear(in_features=192, out_features=48, bias=True)
          (1): ReLU(inplace=True)
          (2): Linear(in_features=48, out_features=192, bias=True)
          (3): h_sigmoid(
            (relu): ReLU6(inplace=True)
          )
        )
      )
      (conv2): Sequential(
        (0): Conv2d(96, 24, kernel_size=(1, 1), stride=(1, 1), bias=False)
        (1): BatchNorm2d(24, eps=1e-05, momentum=0.1, affine=True, track_running_stats=True)
      )
      (act2): DyReLU(
        (act): Sequential()
      )
      (conv3): Sequential(
        (0): Conv2d(24, 96, kernel_size=(3, 3), stride=(1, 1), padding=(1, 1), groups=24, bias=False)
        (1): BatchNorm2d(96, eps=1e-05, momentum=0.1, affine=True, track_running_stats=True)
        (2): Sequential()
      )
      (act3): DyReLU(
        (act): Sequential()
      )
      (hyper3): HyperFunc(
        (hyper): Sequential(
          (0): Linear(in_features=192, out_features=48, bias=True)
          (1): ReLU(inplace=True)
          (2): Linear(in_features=48, out_features=192, bias=True)
          (3): h_sigmoid(
            (relu): ReLU6(inplace=True)
          )
        )
      )
      (conv4): Sequential(
        (0): Conv2d(96, 24, kernel_size=(1, 1), stride=(1, 1), bias=False)
        (1): BatchNorm2d(24, eps=1e-05, momentum=0.1, affine=True, track_running_stats=True)
      )
      (act4): DyReLU(
        (act): Sequential()
      )
      (hyper4): Sequential()
      (drop_path): DropPath(drop_prob=0.000)
      (local_global): Local2Global(
        (alpha): Sequential(
          (0): Linear(in_features=192, out_features=16, bias=True)
          (1): h_sigmoid(
            (relu): ReLU6(inplace=True)
          )
        )
        (q): Linear(in_features=192, out_features=16, bias=True)
        (proj): Linear(in_features=16, out_features=192, bias=True)
        (layer_norm): LayerNorm((192,), eps=1e-05, elementwise_affine=True)
        (drop_path): DropPath(drop_prob=0.000)
      )
      (global_block): GlobalBlock(
        (ffn): Sequential(
          (0): Linear(in_features=192, out_features=384, bias=True)
          (1): GELU(approximate=none)
          (2): Linear(in_features=384, out_features=192, bias=True)
        )
        (ffn_norm): LayerNorm((192,), eps=1e-05, elementwise_affine=True)
        (relative_attn): RelativeAttention(
          (Q): Linear(in_features=192, out_features=192, bias=False)
          (K): Linear(in_features=192, out_features=192, bias=False)
          (V): Linear(in_features=192, out_features=192, bias=False)
          (ff): Linear(in_features=192, out_features=192, bias=True)
          (attn_dropout): Dropout2d(p=0.1, inplace=False)
          (ff_dropout): Dropout(p=0.1, inplace=False)
        )
        (channel_mlp): Linear(in_features=192, out_features=192, bias=True)
        (layer_norm): LayerNorm((192,), eps=1e-05, elementwise_affine=True)
        (drop_path): DropPath(drop_prob=0.000)
      )
      (global_local): Global2Local(
        (k): Linear(in_features=192, out_features=24, bias=True)
        (proj): Linear(in_features=192, out_features=24, bias=True)
        (drop_path): DropPath(drop_prob=0.000)
      )
    )
    (2): DnaBlock(
      (conv1): Sequential(
        (0): Conv2d(24, 96, kernel_size=(1, 1), stride=(1, 1), bias=False)
        (1): BatchNorm2d(96, eps=1e-05, momentum=0.1, affine=True, track_running_stats=True)
        (2): Sequential()
      )
      (act1): DyReLU(
        (act): Sequential()
      )
      (hyper1): HyperFunc(
        (hyper): Sequential(
          (0): Linear(in_features=192, out_features=48, bias=True)
          (1): ReLU(inplace=True)
          (2): Linear(in_features=48, out_features=192, bias=True)
          (3): h_sigmoid(
            (relu): ReLU6(inplace=True)
          )
        )
      )
      (conv2): Sequential(
        (0): Conv2d(96, 96, kernel_size=(3, 3), stride=(1, 1), padding=(1, 1), groups=96, bias=False)
        (1): BatchNorm2d(96, eps=1e-05, momentum=0.1, affine=True, track_running_stats=True)
      )
      (act2): DyReLU(
        (act): Sequential()
      )
      (hyper2): HyperFunc(
        (hyper): Sequential(
          (0): Linear(in_features=192, out_features=48, bias=True)
          (1): ReLU(inplace=True)
          (2): Linear(in_features=48, out_features=192, bias=True)
          (3): h_sigmoid(
            (relu): ReLU6(inplace=True)
          )
        )
      )
      (conv3): Sequential(
        (0): Conv2d(96, 24, kernel_size=(1, 1), stride=(1, 1), bias=False)
        (1): BatchNorm2d(24, eps=1e-05, momentum=0.1, affine=True, track_running_stats=True)
        (2): Sequential()
      )
      (act3): DyReLU(
        (act): Sequential()
      )
      (hyper3): Sequential()
      (drop_path): DropPath(drop_prob=0.000)
      (local_global): Local2Global(
        (alpha): Sequential(
          (0): Linear(in_features=192, out_features=24, bias=True)
          (1): h_sigmoid(
            (relu): ReLU6(inplace=True)
          )
        )
        (q): Linear(in_features=192, out_features=24, bias=True)
        (proj): Linear(in_features=24, out_features=192, bias=True)
        (layer_norm): LayerNorm((192,), eps=1e-05, elementwise_affine=True)
        (drop_path): DropPath(drop_prob=0.000)
      )
      (global_block): GlobalBlock(
        (ffn): Sequential(
          (0): Linear(in_features=192, out_features=384, bias=True)
          (1): GELU(approximate=none)
          (2): Linear(in_features=384, out_features=192, bias=True)
        )
        (ffn_norm): LayerNorm((192,), eps=1e-05, elementwise_affine=True)
        (relative_attn): RelativeAttention(
          (Q): Linear(in_features=192, out_features=192, bias=False)
          (K): Linear(in_features=192, out_features=192, bias=False)
          (V): Linear(in_features=192, out_features=192, bias=False)
          (ff): Linear(in_features=192, out_features=192, bias=True)
          (attn_dropout): Dropout2d(p=0.1, inplace=False)
          (ff_dropout): Dropout(p=0.1, inplace=False)
        )
        (channel_mlp): Linear(in_features=192, out_features=192, bias=True)
        (layer_norm): LayerNorm((192,), eps=1e-05, elementwise_affine=True)
        (drop_path): DropPath(drop_prob=0.000)
      )
      (global_local): Global2Local(
        (k): Linear(in_features=192, out_features=24, bias=True)
        (proj): Linear(in_features=192, out_features=24, bias=True)
        (drop_path): DropPath(drop_prob=0.000)
      )
    )
    (3): DnaBlock3(
      (conv1): Sequential(
        (0): Conv2d(24, 144, kernel_size=(3, 3), stride=(2, 2), padding=(1, 1), groups=24, bias=False)
        (1): BatchNorm2d(144, eps=1e-05, momentum=0.1, affine=True, track_running_stats=True)
        (2): Sequential()
      )
      (act1): DyReLU(
        (act): Sequential()
      )
      (hyper1): HyperFunc(
        (hyper): Sequential(
          (0): Linear(in_features=192, out_features=48, bias=True)
          (1): ReLU(inplace=True)
          (2): Linear(in_features=48, out_features=288, bias=True)
          (3): h_sigmoid(
            (relu): ReLU6(inplace=True)
          )
        )
      )
      (conv2): Sequential(
        (0): Conv2d(144, 48, kernel_size=(1, 1), stride=(1, 1), bias=False)
        (1): BatchNorm2d(48, eps=1e-05, momentum=0.1, affine=True, track_running_stats=True)
      )
      (act2): DyReLU(
        (act): Sequential()
      )
      (conv3): Sequential(
        (0): Conv2d(48, 192, kernel_size=(3, 3), stride=(1, 1), padding=(1, 1), groups=48, bias=False)
        (1): BatchNorm2d(192, eps=1e-05, momentum=0.1, affine=True, track_running_stats=True)
        (2): Sequential()
      )
      (act3): DyReLU(
        (act): Sequential()
      )
      (hyper3): HyperFunc(
        (hyper): Sequential(
          (0): Linear(in_features=192, out_features=48, bias=True)
          (1): ReLU(inplace=True)
          (2): Linear(in_features=48, out_features=384, bias=True)
          (3): h_sigmoid(
            (relu): ReLU6(inplace=True)
          )
        )
      )
      (conv4): Sequential(
        (0): Conv2d(192, 48, kernel_size=(1, 1), stride=(1, 1), bias=False)
        (1): BatchNorm2d(48, eps=1e-05, momentum=0.1, affine=True, track_running_stats=True)
      )
      (act4): DyReLU(
        (act): Sequential()
      )
      (hyper4): Sequential()
      (drop_path): DropPath(drop_prob=0.000)
      (local_global): Local2Global(
        (alpha): Sequential(
          (0): Linear(in_features=192, out_features=24, bias=True)
          (1): h_sigmoid(
            (relu): ReLU6(inplace=True)
          )
        )
        (q): Linear(in_features=192, out_features=24, bias=True)
        (proj): Linear(in_features=24, out_features=192, bias=True)
        (layer_norm): LayerNorm((192,), eps=1e-05, elementwise_affine=True)
        (drop_path): DropPath(drop_prob=0.000)
      )
      (global_block): GlobalBlock(
        (ffn): Sequential(
          (0): Linear(in_features=192, out_features=384, bias=True)
          (1): GELU(approximate=none)
          (2): Linear(in_features=384, out_features=192, bias=True)
        )
        (ffn_norm): LayerNorm((192,), eps=1e-05, elementwise_affine=True)
        (relative_attn): RelativeAttention(
          (Q): Linear(in_features=192, out_features=192, bias=False)
          (K): Linear(in_features=192, out_features=192, bias=False)
          (V): Linear(in_features=192, out_features=192, bias=False)
          (ff): Linear(in_features=192, out_features=192, bias=True)
          (attn_dropout): Dropout2d(p=0.1, inplace=False)
          (ff_dropout): Dropout(p=0.1, inplace=False)
        )
        (channel_mlp): Linear(in_features=192, out_features=192, bias=True)
        (layer_norm): LayerNorm((192,), eps=1e-05, elementwise_affine=True)
        (drop_path): DropPath(drop_prob=0.000)
      )
      (global_local): Global2Local(
        (k): Linear(in_features=192, out_features=48, bias=True)
        (proj): Linear(in_features=192, out_features=48, bias=True)
        (drop_path): DropPath(drop_prob=0.000)
      )
    )
    (4): DnaBlock(
      (conv1): Sequential(
        (0): Conv2d(48, 192, kernel_size=(1, 1), stride=(1, 1), bias=False)
        (1): BatchNorm2d(192, eps=1e-05, momentum=0.1, affine=True, track_running_stats=True)
        (2): Sequential()
      )
      (act1): DyReLU(
        (act): Sequential()
      )
      (hyper1): HyperFunc(
        (hyper): Sequential(
          (0): Linear(in_features=192, out_features=48, bias=True)
          (1): ReLU(inplace=True)
          (2): Linear(in_features=48, out_features=384, bias=True)
          (3): h_sigmoid(
            (relu): ReLU6(inplace=True)
          )
        )
      )
      (conv2): Sequential(
        (0): Conv2d(192, 192, kernel_size=(3, 3), stride=(1, 1), padding=(1, 1), groups=192, bias=False)
        (1): BatchNorm2d(192, eps=1e-05, momentum=0.1, affine=True, track_running_stats=True)
      )
      (act2): DyReLU(
        (act): Sequential()
      )
      (hyper2): HyperFunc(
        (hyper): Sequential(
          (0): Linear(in_features=192, out_features=48, bias=True)
          (1): ReLU(inplace=True)
          (2): Linear(in_features=48, out_features=384, bias=True)
          (3): h_sigmoid(
            (relu): ReLU6(inplace=True)
          )
        )
      )
      (conv3): Sequential(
        (0): Conv2d(192, 48, kernel_size=(1, 1), stride=(1, 1), bias=False)
        (1): BatchNorm2d(48, eps=1e-05, momentum=0.1, affine=True, track_running_stats=True)
        (2): Sequential()
      )
      (act3): DyReLU(
        (act): Sequential()
      )
      (hyper3): Sequential()
      (drop_path): DropPath(drop_prob=0.000)
      (local_global): Local2Global(
        (alpha): Sequential(
          (0): Linear(in_features=192, out_features=48, bias=True)
          (1): h_sigmoid(
            (relu): ReLU6(inplace=True)
          )
        )
        (q): Linear(in_features=192, out_features=48, bias=True)
        (proj): Linear(in_features=48, out_features=192, bias=True)
        (layer_norm): LayerNorm((192,), eps=1e-05, elementwise_affine=True)
        (drop_path): DropPath(drop_prob=0.000)
      )
      (global_block): GlobalBlock(
        (ffn): Sequential(
          (0): Linear(in_features=192, out_features=384, bias=True)
          (1): GELU(approximate=none)
          (2): Linear(in_features=384, out_features=192, bias=True)
        )
        (ffn_norm): LayerNorm((192,), eps=1e-05, elementwise_affine=True)
        (relative_attn): RelativeAttention(
          (Q): Linear(in_features=192, out_features=192, bias=False)
          (K): Linear(in_features=192, out_features=192, bias=False)
          (V): Linear(in_features=192, out_features=192, bias=False)
          (ff): Linear(in_features=192, out_features=192, bias=True)
          (attn_dropout): Dropout2d(p=0.1, inplace=False)
          (ff_dropout): Dropout(p=0.1, inplace=False)
        )
        (channel_mlp): Linear(in_features=192, out_features=192, bias=True)
        (layer_norm): LayerNorm((192,), eps=1e-05, elementwise_affine=True)
        (drop_path): DropPath(drop_prob=0.000)
      )
      (global_local): Global2Local(
        (k): Linear(in_features=192, out_features=48, bias=True)
        (proj): Linear(in_features=192, out_features=48, bias=True)
        (drop_path): DropPath(drop_prob=0.000)
      )
    )
    (5): DnaBlock3(
      (conv1): Sequential(
        (0): Conv2d(48, 288, kernel_size=(3, 3), stride=(2, 2), padding=(1, 1), groups=48, bias=False)
        (1): BatchNorm2d(288, eps=1e-05, momentum=0.1, affine=True, track_running_stats=True)
        (2): Sequential()
      )
      (act1): DyReLU(
        (act): Sequential()
      )
      (hyper1): HyperFunc(
        (hyper): Sequential(
          (0): Linear(in_features=192, out_features=48, bias=True)
          (1): ReLU(inplace=True)
          (2): Linear(in_features=48, out_features=576, bias=True)
          (3): h_sigmoid(
            (relu): ReLU6(inplace=True)
          )
        )
      )
      (conv2): Sequential(
        (0): Conv2d(288, 96, kernel_size=(1, 1), stride=(1, 1), bias=False)
        (1): BatchNorm2d(96, eps=1e-05, momentum=0.1, affine=True, track_running_stats=True)
      )
      (act2): DyReLU(
        (act): Sequential()
      )
      (conv3): Sequential(
        (0): Conv2d(96, 384, kernel_size=(3, 3), stride=(1, 1), padding=(1, 1), groups=96, bias=False)
        (1): BatchNorm2d(384, eps=1e-05, momentum=0.1, affine=True, track_running_stats=True)
        (2): Sequential()
      )
      (act3): DyReLU(
        (act): Sequential()
      )
      (hyper3): HyperFunc(
        (hyper): Sequential(
          (0): Linear(in_features=192, out_features=48, bias=True)
          (1): ReLU(inplace=True)
          (2): Linear(in_features=48, out_features=768, bias=True)
          (3): h_sigmoid(
            (relu): ReLU6(inplace=True)
          )
        )
      )
      (conv4): Sequential(
        (0): Conv2d(384, 96, kernel_size=(1, 1), stride=(1, 1), bias=False)
        (1): BatchNorm2d(96, eps=1e-05, momentum=0.1, affine=True, track_running_stats=True)
      )
      (act4): DyReLU(
        (act): Sequential()
      )
      (hyper4): Sequential()
      (drop_path): DropPath(drop_prob=0.000)
      (local_global): Local2Global(
        (alpha): Sequential(
          (0): Linear(in_features=192, out_features=48, bias=True)
          (1): h_sigmoid(
            (relu): ReLU6(inplace=True)
          )
        )
        (q): Linear(in_features=192, out_features=48, bias=True)
        (proj): Linear(in_features=48, out_features=192, bias=True)
        (layer_norm): LayerNorm((192,), eps=1e-05, elementwise_affine=True)
        (drop_path): DropPath(drop_prob=0.000)
      )
      (global_block): GlobalBlock(
        (ffn): Sequential(
          (0): Linear(in_features=192, out_features=384, bias=True)
          (1): GELU(approximate=none)
          (2): Linear(in_features=384, out_features=192, bias=True)
        )
        (ffn_norm): LayerNorm((192,), eps=1e-05, elementwise_affine=True)
        (relative_attn): RelativeAttention(
          (Q): Linear(in_features=192, out_features=192, bias=False)
          (K): Linear(in_features=192, out_features=192, bias=False)
          (V): Linear(in_features=192, out_features=192, bias=False)
          (ff): Linear(in_features=192, out_features=192, bias=True)
          (attn_dropout): Dropout2d(p=0.1, inplace=False)
          (ff_dropout): Dropout(p=0.1, inplace=False)
        )
        (channel_mlp): Linear(in_features=192, out_features=192, bias=True)
        (layer_norm): LayerNorm((192,), eps=1e-05, elementwise_affine=True)
        (drop_path): DropPath(drop_prob=0.000)
      )
      (global_local): Global2Local(
        (k): Linear(in_features=192, out_features=96, bias=True)
        (proj): Linear(in_features=192, out_features=96, bias=True)
        (drop_path): DropPath(drop_prob=0.000)
      )
    )
    (6): DnaBlock(
      (conv1): Sequential(
        (0): Conv2d(96, 384, kernel_size=(1, 1), stride=(1, 1), bias=False)
        (1): BatchNorm2d(384, eps=1e-05, momentum=0.1, affine=True, track_running_stats=True)
        (2): Sequential()
      )
      (act1): DyReLU(
        (act): Sequential()
      )
      (hyper1): HyperFunc(
        (hyper): Sequential(
          (0): Linear(in_features=192, out_features=48, bias=True)
          (1): ReLU(inplace=True)
          (2): Linear(in_features=48, out_features=768, bias=True)
          (3): h_sigmoid(
            (relu): ReLU6(inplace=True)
          )
        )
      )
      (conv2): Sequential(
        (0): Conv2d(384, 384, kernel_size=(3, 3), stride=(1, 1), padding=(1, 1), groups=384, bias=False)
        (1): BatchNorm2d(384, eps=1e-05, momentum=0.1, affine=True, track_running_stats=True)
      )
      (act2): DyReLU(
        (act): Sequential()
      )
      (hyper2): HyperFunc(
        (hyper): Sequential(
          (0): Linear(in_features=192, out_features=48, bias=True)
          (1): ReLU(inplace=True)
          (2): Linear(in_features=48, out_features=768, bias=True)
          (3): h_sigmoid(
            (relu): ReLU6(inplace=True)
          )
        )
      )
      (conv3): Sequential(
        (0): Conv2d(384, 96, kernel_size=(1, 1), stride=(1, 1), bias=False)
        (1): BatchNorm2d(96, eps=1e-05, momentum=0.1, affine=True, track_running_stats=True)
        (2): Sequential()
      )
      (act3): DyReLU(
        (act): Sequential()
      )
      (hyper3): Sequential()
      (drop_path): DropPath(drop_prob=0.000)
      (local_global): Local2Global(
        (alpha): Sequential(
          (0): Linear(in_features=192, out_features=96, bias=True)
          (1): h_sigmoid(
            (relu): ReLU6(inplace=True)
          )
        )
        (q): Linear(in_features=192, out_features=96, bias=True)
        (proj): Linear(in_features=96, out_features=192, bias=True)
        (layer_norm): LayerNorm((192,), eps=1e-05, elementwise_affine=True)
        (drop_path): DropPath(drop_prob=0.000)
      )
      (global_block): GlobalBlock(
        (ffn): Sequential(
          (0): Linear(in_features=192, out_features=384, bias=True)
          (1): GELU(approximate=none)
          (2): Linear(in_features=384, out_features=192, bias=True)
        )
        (ffn_norm): LayerNorm((192,), eps=1e-05, elementwise_affine=True)
        (relative_attn): RelativeAttention(
          (Q): Linear(in_features=192, out_features=192, bias=False)
          (K): Linear(in_features=192, out_features=192, bias=False)
          (V): Linear(in_features=192, out_features=192, bias=False)
          (ff): Linear(in_features=192, out_features=192, bias=True)
          (attn_dropout): Dropout2d(p=0.1, inplace=False)
          (ff_dropout): Dropout(p=0.1, inplace=False)
        )
        (channel_mlp): Linear(in_features=192, out_features=192, bias=True)
        (layer_norm): LayerNorm((192,), eps=1e-05, elementwise_affine=True)
        (drop_path): DropPath(drop_prob=0.000)
      )
      (global_local): Global2Local(
        (k): Linear(in_features=192, out_features=96, bias=True)
        (proj): Linear(in_features=192, out_features=96, bias=True)
        (drop_path): DropPath(drop_prob=0.000)
      )
    )
    (7): DnaBlock(
      (conv1): Sequential(
        (0): Conv2d(96, 576, kernel_size=(1, 1), stride=(1, 1), bias=False)
        (1): BatchNorm2d(576, eps=1e-05, momentum=0.1, affine=True, track_running_stats=True)
        (2): Sequential()
      )
      (act1): DyReLU(
        (act): Sequential()
      )
      (hyper1): HyperFunc(
        (hyper): Sequential(
          (0): Linear(in_features=192, out_features=48, bias=True)
          (1): ReLU(inplace=True)
          (2): Linear(in_features=48, out_features=1152, bias=True)
          (3): h_sigmoid(
            (relu): ReLU6(inplace=True)
          )
        )
      )
      (conv2): Sequential(
        (0): Conv2d(576, 576, kernel_size=(3, 3), stride=(1, 1), padding=(1, 1), groups=576, bias=False)
        (1): BatchNorm2d(576, eps=1e-05, momentum=0.1, affine=True, track_running_stats=True)
      )
      (act2): DyReLU(
        (act): Sequential()
      )
      (hyper2): HyperFunc(
        (hyper): Sequential(
          (0): Linear(in_features=192, out_features=48, bias=True)
          (1): ReLU(inplace=True)
          (2): Linear(in_features=48, out_features=1152, bias=True)
          (3): h_sigmoid(
            (relu): ReLU6(inplace=True)
          )
        )
      )
      (conv3): Sequential(
        (0): Conv2d(576, 128, kernel_size=(1, 1), stride=(1, 1), bias=False)
        (1): BatchNorm2d(128, eps=1e-05, momentum=0.1, affine=True, track_running_stats=True)
        (2): Sequential()
      )
      (act3): DyReLU(
        (act): Sequential()
      )
      (hyper3): Sequential()
      (drop_path): DropPath(drop_prob=0.000)
      (local_global): Local2Global(
        (alpha): Sequential(
          (0): Linear(in_features=192, out_features=96, bias=True)
          (1): h_sigmoid(
            (relu): ReLU6(inplace=True)
          )
        )
        (q): Linear(in_features=192, out_features=96, bias=True)
        (proj): Linear(in_features=96, out_features=192, bias=True)
        (layer_norm): LayerNorm((192,), eps=1e-05, elementwise_affine=True)
        (drop_path): DropPath(drop_prob=0.000)
      )
      (global_block): GlobalBlock(
        (ffn): Sequential(
          (0): Linear(in_features=192, out_features=384, bias=True)
          (1): GELU(approximate=none)
          (2): Linear(in_features=384, out_features=192, bias=True)
        )
        (ffn_norm): LayerNorm((192,), eps=1e-05, elementwise_affine=True)
        (relative_attn): RelativeAttention(
          (Q): Linear(in_features=192, out_features=192, bias=False)
          (K): Linear(in_features=192, out_features=192, bias=False)
          (V): Linear(in_features=192, out_features=192, bias=False)
          (ff): Linear(in_features=192, out_features=192, bias=True)
          (attn_dropout): Dropout2d(p=0.1, inplace=False)
          (ff_dropout): Dropout(p=0.1, inplace=False)
        )
        (channel_mlp): Linear(in_features=192, out_features=192, bias=True)
        (layer_norm): LayerNorm((192,), eps=1e-05, elementwise_affine=True)
        (drop_path): DropPath(drop_prob=0.000)
      )
      (global_local): Global2Local(
        (k): Linear(in_features=192, out_features=128, bias=True)
        (proj): Linear(in_features=192, out_features=128, bias=True)
        (drop_path): DropPath(drop_prob=0.000)
      )
    )
    (8): DnaBlock(
      (conv1): Sequential(
        (0): Conv2d(128, 768, kernel_size=(1, 1), stride=(1, 1), bias=False)
        (1): BatchNorm2d(768, eps=1e-05, momentum=0.1, affine=True, track_running_stats=True)
        (2): Sequential()
      )
      (act1): DyReLU(
        (act): Sequential()
      )
      (hyper1): HyperFunc(
        (hyper): Sequential(
          (0): Linear(in_features=192, out_features=48, bias=True)
          (1): ReLU(inplace=True)
          (2): Linear(in_features=48, out_features=1536, bias=True)
          (3): h_sigmoid(
            (relu): ReLU6(inplace=True)
          )
        )
      )
      (conv2): Sequential(
        (0): Conv2d(768, 768, kernel_size=(3, 3), stride=(1, 1), padding=(1, 1), groups=768, bias=False)
        (1): BatchNorm2d(768, eps=1e-05, momentum=0.1, affine=True, track_running_stats=True)
      )
      (act2): DyReLU(
        (act): Sequential()
      )
      (hyper2): HyperFunc(
        (hyper): Sequential(
          (0): Linear(in_features=192, out_features=48, bias=True)
          (1): ReLU(inplace=True)
          (2): Linear(in_features=48, out_features=1536, bias=True)
          (3): h_sigmoid(
            (relu): ReLU6(inplace=True)
          )
        )
      )
      (conv3): Sequential(
        (0): Conv2d(768, 128, kernel_size=(1, 1), stride=(1, 1), bias=False)
        (1): BatchNorm2d(128, eps=1e-05, momentum=0.1, affine=True, track_running_stats=True)
        (2): Sequential()
      )
      (act3): DyReLU(
        (act): Sequential()
      )
      (hyper3): Sequential()
      (drop_path): DropPath(drop_prob=0.000)
      (local_global): Local2Global(
        (alpha): Sequential(
          (0): Linear(in_features=192, out_features=128, bias=True)
          (1): h_sigmoid(
            (relu): ReLU6(inplace=True)
          )
        )
        (q): Linear(in_features=192, out_features=128, bias=True)
        (proj): Linear(in_features=128, out_features=192, bias=True)
        (layer_norm): LayerNorm((192,), eps=1e-05, elementwise_affine=True)
        (drop_path): DropPath(drop_prob=0.000)
      )
      (global_block): GlobalBlock(
        (ffn): Sequential(
          (0): Linear(in_features=192, out_features=384, bias=True)
          (1): GELU(approximate=none)
          (2): Linear(in_features=384, out_features=192, bias=True)
        )
        (ffn_norm): LayerNorm((192,), eps=1e-05, elementwise_affine=True)
        (relative_attn): RelativeAttention(
          (Q): Linear(in_features=192, out_features=192, bias=False)
          (K): Linear(in_features=192, out_features=192, bias=False)
          (V): Linear(in_features=192, out_features=192, bias=False)
          (ff): Linear(in_features=192, out_features=192, bias=True)
          (attn_dropout): Dropout2d(p=0.1, inplace=False)
          (ff_dropout): Dropout(p=0.1, inplace=False)
        )
        (channel_mlp): Linear(in_features=192, out_features=192, bias=True)
        (layer_norm): LayerNorm((192,), eps=1e-05, elementwise_affine=True)
        (drop_path): DropPath(drop_prob=0.000)
      )
      (global_local): Global2Local(
        (k): Linear(in_features=192, out_features=128, bias=True)
        (proj): Linear(in_features=192, out_features=128, bias=True)
        (drop_path): DropPath(drop_prob=0.000)
      )
    )
    (9): DnaBlock3(
      (conv1): Sequential(
        (0): Conv2d(128, 768, kernel_size=(3, 3), stride=(2, 2), padding=(1, 1), groups=128, bias=False)
        (1): BatchNorm2d(768, eps=1e-05, momentum=0.1, affine=True, track_running_stats=True)
        (2): Sequential()
      )
      (act1): DyReLU(
        (act): Sequential()
      )
      (hyper1): HyperFunc(
        (hyper): Sequential(
          (0): Linear(in_features=192, out_features=48, bias=True)
          (1): ReLU(inplace=True)
          (2): Linear(in_features=48, out_features=1536, bias=True)
          (3): h_sigmoid(
            (relu): ReLU6(inplace=True)
          )
        )
      )
      (conv2): Sequential(
        (0): Conv2d(768, 192, kernel_size=(1, 1), stride=(1, 1), bias=False)
        (1): BatchNorm2d(192, eps=1e-05, momentum=0.1, affine=True, track_running_stats=True)
      )
      (act2): DyReLU(
        (act): Sequential()
      )
      (conv3): Sequential(
        (0): Conv2d(192, 768, kernel_size=(3, 3), stride=(1, 1), padding=(1, 1), groups=192, bias=False)
        (1): BatchNorm2d(768, eps=1e-05, momentum=0.1, affine=True, track_running_stats=True)
        (2): Sequential()
      )
      (act3): DyReLU(
        (act): Sequential()
      )
      (hyper3): HyperFunc(
        (hyper): Sequential(
          (0): Linear(in_features=192, out_features=48, bias=True)
          (1): ReLU(inplace=True)
          (2): Linear(in_features=48, out_features=1536, bias=True)
          (3): h_sigmoid(
            (relu): ReLU6(inplace=True)
          )
        )
      )
      (conv4): Sequential(
        (0): Conv2d(768, 192, kernel_size=(1, 1), stride=(1, 1), bias=False)
        (1): BatchNorm2d(192, eps=1e-05, momentum=0.1, affine=True, track_running_stats=True)
      )
      (act4): DyReLU(
        (act): Sequential()
      )
      (hyper4): Sequential()
      (drop_path): DropPath(drop_prob=0.000)
      (local_global): Local2Global(
        (alpha): Sequential(
          (0): Linear(in_features=192, out_features=128, bias=True)
          (1): h_sigmoid(
            (relu): ReLU6(inplace=True)
          )
        )
        (q): Linear(in_features=192, out_features=128, bias=True)
        (proj): Linear(in_features=128, out_features=192, bias=True)
        (layer_norm): LayerNorm((192,), eps=1e-05, elementwise_affine=True)
        (drop_path): DropPath(drop_prob=0.000)
      )
      (global_block): GlobalBlock(
        (ffn): Sequential(
          (0): Linear(in_features=192, out_features=384, bias=True)
          (1): GELU(approximate=none)
          (2): Linear(in_features=384, out_features=192, bias=True)
        )
        (ffn_norm): LayerNorm((192,), eps=1e-05, elementwise_affine=True)
        (relative_attn): RelativeAttention(
          (Q): Linear(in_features=192, out_features=192, bias=False)
          (K): Linear(in_features=192, out_features=192, bias=False)
          (V): Linear(in_features=192, out_features=192, bias=False)
          (ff): Linear(in_features=192, out_features=192, bias=True)
          (attn_dropout): Dropout2d(p=0.1, inplace=False)
          (ff_dropout): Dropout(p=0.1, inplace=False)
        )
        (channel_mlp): Linear(in_features=192, out_features=192, bias=True)
        (layer_norm): LayerNorm((192,), eps=1e-05, elementwise_affine=True)
        (drop_path): DropPath(drop_prob=0.000)
      )
      (global_local): Global2Local(
        (k): Linear(in_features=192, out_features=192, bias=True)
        (proj): Linear(in_features=192, out_features=192, bias=True)
        (drop_path): DropPath(drop_prob=0.000)
      )
    )
    (10): DnaBlock(
      (conv1): Sequential(
        (0): Conv2d(192, 1152, kernel_size=(1, 1), stride=(1, 1), bias=False)
        (1): BatchNorm2d(1152, eps=1e-05, momentum=0.1, affine=True, track_running_stats=True)
        (2): Sequential()
      )
      (act1): DyReLU(
        (act): Sequential()
      )
      (hyper1): HyperFunc(
        (hyper): Sequential(
          (0): Linear(in_features=192, out_features=48, bias=True)
          (1): ReLU(inplace=True)
          (2): Linear(in_features=48, out_features=2304, bias=True)
          (3): h_sigmoid(
            (relu): ReLU6(inplace=True)
          )
        )
      )
      (conv2): Sequential(
        (0): Conv2d(1152, 1152, kernel_size=(3, 3), stride=(1, 1), padding=(1, 1), groups=1152, bias=False)
        (1): BatchNorm2d(1152, eps=1e-05, momentum=0.1, affine=True, track_running_stats=True)
      )
      (act2): DyReLU(
        (act): Sequential()
      )
      (hyper2): HyperFunc(
        (hyper): Sequential(
          (0): Linear(in_features=192, out_features=48, bias=True)
          (1): ReLU(inplace=True)
          (2): Linear(in_features=48, out_features=2304, bias=True)
          (3): h_sigmoid(
            (relu): ReLU6(inplace=True)
          )
        )
      )
      (conv3): Sequential(
        (0): Conv2d(1152, 192, kernel_size=(1, 1), stride=(1, 1), bias=False)
        (1): BatchNorm2d(192, eps=1e-05, momentum=0.1, affine=True, track_running_stats=True)
        (2): Sequential()
      )
      (act3): DyReLU(
        (act): Sequential()
      )
      (hyper3): Sequential()
      (drop_path): DropPath(drop_prob=0.000)
      (local_global): Local2Global(
        (alpha): Sequential(
          (0): Linear(in_features=192, out_features=192, bias=True)
          (1): h_sigmoid(
            (relu): ReLU6(inplace=True)
          )
        )
        (q): Linear(in_features=192, out_features=192, bias=True)
        (proj): Linear(in_features=192, out_features=192, bias=True)
        (layer_norm): LayerNorm((192,), eps=1e-05, elementwise_affine=True)
        (drop_path): DropPath(drop_prob=0.000)
      )
      (global_block): GlobalBlock(
        (ffn): Sequential(
          (0): Linear(in_features=192, out_features=384, bias=True)
          (1): GELU(approximate=none)
          (2): Linear(in_features=384, out_features=192, bias=True)
        )
        (ffn_norm): LayerNorm((192,), eps=1e-05, elementwise_affine=True)
        (relative_attn): RelativeAttention(
          (Q): Linear(in_features=192, out_features=192, bias=False)
          (K): Linear(in_features=192, out_features=192, bias=False)
          (V): Linear(in_features=192, out_features=192, bias=False)
          (ff): Linear(in_features=192, out_features=192, bias=True)
          (attn_dropout): Dropout2d(p=0.1, inplace=False)
          (ff_dropout): Dropout(p=0.1, inplace=False)
        )
        (channel_mlp): Linear(in_features=192, out_features=192, bias=True)
        (layer_norm): LayerNorm((192,), eps=1e-05, elementwise_affine=True)
        (drop_path): DropPath(drop_prob=0.000)
      )
      (global_local): Global2Local(
        (k): Linear(in_features=192, out_features=192, bias=True)
        (proj): Linear(in_features=192, out_features=192, bias=True)
        (drop_path): DropPath(drop_prob=0.000)
      )
    )
    (11): DnaBlock(
      (conv1): Sequential(
        (0): Conv2d(192, 1152, kernel_size=(1, 1), stride=(1, 1), bias=False)
        (1): BatchNorm2d(1152, eps=1e-05, momentum=0.1, affine=True, track_running_stats=True)
        (2): Sequential()
      )
      (act1): DyReLU(
        (act): Sequential()
      )
      (hyper1): HyperFunc(
        (hyper): Sequential(
          (0): Linear(in_features=192, out_features=48, bias=True)
          (1): ReLU(inplace=True)
          (2): Linear(in_features=48, out_features=2304, bias=True)
          (3): h_sigmoid(
            (relu): ReLU6(inplace=True)
          )
        )
      )
      (conv2): Sequential(
        (0): Conv2d(1152, 1152, kernel_size=(3, 3), stride=(1, 1), padding=(1, 1), groups=1152, bias=False)
        (1): BatchNorm2d(1152, eps=1e-05, momentum=0.1, affine=True, track_running_stats=True)
      )
      (act2): DyReLU(
        (act): Sequential()
      )
      (hyper2): HyperFunc(
        (hyper): Sequential(
          (0): Linear(in_features=192, out_features=48, bias=True)
          (1): ReLU(inplace=True)
          (2): Linear(in_features=48, out_features=2304, bias=True)
          (3): h_sigmoid(
            (relu): ReLU6(inplace=True)
          )
        )
      )
      (conv3): Sequential(
        (0): Conv2d(1152, 192, kernel_size=(1, 1), stride=(1, 1), bias=False)
        (1): BatchNorm2d(192, eps=1e-05, momentum=0.1, affine=True, track_running_stats=True)
        (2): Sequential()
      )
      (act3): DyReLU(
        (act): Sequential()
      )
      (hyper3): Sequential()
      (drop_path): DropPath(drop_prob=0.000)
      (local_global): Local2Global(
        (alpha): Sequential(
          (0): Linear(in_features=192, out_features=192, bias=True)
          (1): h_sigmoid(
            (relu): ReLU6(inplace=True)
          )
        )
        (q): Linear(in_features=192, out_features=192, bias=True)
        (proj): Linear(in_features=192, out_features=192, bias=True)
        (layer_norm): LayerNorm((192,), eps=1e-05, elementwise_affine=True)
        (drop_path): DropPath(drop_prob=0.000)
      )
      (global_block): GlobalBlock(
        (ffn): Sequential(
          (0): Linear(in_features=192, out_features=384, bias=True)
          (1): GELU(approximate=none)
          (2): Linear(in_features=384, out_features=192, bias=True)
        )
        (ffn_norm): LayerNorm((192,), eps=1e-05, elementwise_affine=True)
        (relative_attn): RelativeAttention(
          (Q): Linear(in_features=192, out_features=192, bias=False)
          (K): Linear(in_features=192, out_features=192, bias=False)
          (V): Linear(in_features=192, out_features=192, bias=False)
          (ff): Linear(in_features=192, out_features=192, bias=True)
          (attn_dropout): Dropout2d(p=0.1, inplace=False)
          (ff_dropout): Dropout(p=0.1, inplace=False)
        )
        (channel_mlp): Linear(in_features=192, out_features=192, bias=True)
        (layer_norm): LayerNorm((192,), eps=1e-05, elementwise_affine=True)
        (drop_path): DropPath(drop_prob=0.000)
      )
      (global_local): Global2Local(
        (k): Linear(in_features=192, out_features=192, bias=True)
        (proj): Linear(in_features=192, out_features=192, bias=True)
        (drop_path): DropPath(drop_prob=0.000)
      )
    )
  )
  (local_global): Local2Global(
    (alpha): Sequential(
      (0): Linear(in_features=192, out_features=192, bias=True)
      (1): h_sigmoid(
        (relu): ReLU6(inplace=True)
      )
    )
    (q): Linear(in_features=192, out_features=192, bias=True)
    (proj): Linear(in_features=192, out_features=192, bias=True)
    (layer_norm): LayerNorm((192,), eps=1e-05, elementwise_affine=True)
    (drop_path): DropPath(drop_prob=0.000)
  )
  (classifier): MergeClassifier(
    (conv): Sequential(
      (0): Sequential()
      (1): Conv2d(192, 1152, kernel_size=(1, 1), stride=(1, 1), bias=False)
      (2): BatchNorm2d(1152, eps=1e-05, momentum=0.1, affine=True, track_running_stats=True)
    )
    (act): DyReLU(
      (act): ReLU6(inplace=True)
    )
    (hyper): Sequential()
    (avgpool): Sequential(
      (0): AdaptiveAvgPool2d(output_size=(1, 1))
      (1): h_swish(
        (sigmoid): h_sigmoid(
          (relu): ReLU6(inplace=True)
        )
      )
    )
    (fc): Sequential(
      (0): Linear(in_features=1344, out_features=1920, bias=True)
      (1): BatchNorm1d(1920, eps=1e-05, momentum=0.1, affine=True, track_running_stats=True)
      (2): h_swish(
        (sigmoid): h_sigmoid(
          (relu): ReLU6(inplace=True)
        )
      )
    )
    (classifier): Sequential(
      (0): Dropout(p=0.0, inplace=False)
      (1): Linear(in_features=1920, out_features=200, bias=True)
    )
  )
)
Train: 76 [   0/5000 (  0%)]  Loss: 3.50 (3.50)  Time: 1.902s,   10.51/s  (1.902s,   10.51/s)  LR: 1.752e-05  Data: 0.523 (0.523)  Elapsed/ETA: 1.9s / 9508.8s
Train: 76 [  50/5000 (  1%)]  Loss: 3.24 (4.15)  Time: 0.433s,   46.20/s  (0.499s,   40.04/s)  LR: 1.752e-05  Data: 0.008 (0.019)  Elapsed/ETA: 25.5s / 2471.8s
Train: 76 [ 100/5000 (  2%)]  Loss: 4.59 (4.08)  Time: 0.568s,   35.24/s  (0.471s,   42.49/s)  LR: 1.752e-05  Data: 0.010 (0.014)  Elapsed/ETA: 47.5s / 2306.2s
…
